Loaded offline data with 3072000 samples
Data episode length: 16
Episode length: 16
Slices per traj: 75
3072000 samples in offline_wall dataset
estimating mean stds: 100%|██████████| 100/100 [00:01<00:00, 86.16it/s]
Inferred input_dim: torch.Size([2, 65, 65])
HJEPA(
  (level1): JEPA(
    (backbone): ImpalaEncoder(
      (stack_blocks): ModuleList(
        (0): ResnetStack(
          (initial_conv): Conv2d(2, 16, kernel_size=(3, 3), stride=(1, 1), padding=(1, 1))
          (blocks): ModuleList(
            (0-1): 2 x ResnetBlock(
              (conv1): Conv2d(16, 16, kernel_size=(3, 3), stride=(1, 1), padding=(1, 1))
              (conv2): Conv2d(16, 16, kernel_size=(3, 3), stride=(1, 1), padding=(1, 1))
            )
          )
          (max_pool): MaxPool2d(kernel_size=3, stride=2, padding=1, dilation=1, ceil_mode=False)
        )
        (1): ResnetStack(
          (initial_conv): Conv2d(16, 32, kernel_size=(3, 3), stride=(1, 1), padding=(1, 1))
          (blocks): ModuleList(
            (0-1): 2 x ResnetBlock(
              (conv1): Conv2d(32, 32, kernel_size=(3, 3), stride=(1, 1), padding=(1, 1))
              (conv2): Conv2d(32, 32, kernel_size=(3, 3), stride=(1, 1), padding=(1, 1))
            )
          )
          (max_pool): MaxPool2d(kernel_size=3, stride=2, padding=1, dilation=1, ceil_mode=False)
        )
        (2): ResnetStack(
          (initial_conv): Conv2d(32, 32, kernel_size=(3, 3), stride=(1, 1), padding=(1, 1))
          (blocks): ModuleList(
            (0-1): 2 x ResnetBlock(
              (conv1): Conv2d(32, 32, kernel_size=(3, 3), stride=(1, 1), padding=(1, 1))
              (conv2): Conv2d(32, 32, kernel_size=(3, 3), stride=(1, 1), padding=(1, 1))
            )
          )
          (max_pool): MaxPool2d(kernel_size=3, stride=2, padding=1, dilation=1, ceil_mode=False)
        )
      )
      (dropout): Identity()
      (mlp): Linear(in_features=2592, out_features=512, bias=True)
      (final_ln): LayerNorm((512,), eps=1e-05, elementwise_affine=True)
    )
    (predictor): RNNPredictorV2(
      (final_ln): LayerNorm((512,), eps=1e-05, elementwise_affine=True)
      (rnn): GRU(2, 512)
    )
  )
)
number of params: 2218672
number of l1 predictor params: 793600
number of l1 backbone params: 1426096
compiling model
compilation finished after 1.100s
Epoch:   0%|          | 0/3 [00:00<?, ?it/s]
Loss: 1.2298, train: 0.043s, data: 0.058s, log: 0.001s:  54%|█████▍    | 26097/48000 [44:06<37:17,  9.79it/s]  
